…
50000/50000 [==============================] - 64s 1ms/step - loss: 1.1230 - acc: 0.6500 - val_loss: 1.0537 - val_acc: 0.6314
Saved trained model at E:\Master\Semester 2\ML\Homeworks\Pure Code\saved_models\keras_cifar10_trained_model.h5
10000/10000 [==============================] - 3s 326us/step
Test loss: 1.053674542236328
Test accuracy: 0.6314

#################################################

_________________________________________________________________
Layer (type)                 Output Shape              Param #
=================================================================
conv2d_1 (Conv2D)            (None, 32, 32, 32)        896
_________________________________________________________________
dropout_1 (Dropout)          (None, 32, 32, 32)        0
_________________________________________________________________
conv2d_2 (Conv2D)            (None, 32, 32, 32)        9248
_________________________________________________________________
max_pooling2d_1 (MaxPooling2 (None, 16, 16, 32)        0
_________________________________________________________________
dropout_2 (Dropout)          (None, 16, 16, 32)        0
_________________________________________________________________
conv2d_3 (Conv2D)            (None, 16, 16, 64)        18496
_________________________________________________________________
activation_1 (Activation)    (None, 16, 16, 64)        0
_________________________________________________________________
conv2d_4 (Conv2D)            (None, 14, 14, 64)        36928
_________________________________________________________________
activation_2 (Activation)    (None, 14, 14, 64)        0
_________________________________________________________________
max_pooling2d_2 (MaxPooling2 (None, 7, 7, 64)          0
_________________________________________________________________
dropout_3 (Dropout)          (None, 7, 7, 64)          0
_________________________________________________________________
flatten_1 (Flatten)          (None, 3136)              0
_________________________________________________________________
dense_1 (Dense)              (None, 512)               1606144
_________________________________________________________________
dropout_4 (Dropout)          (None, 512)               0
_________________________________________________________________
dense_2 (Dense)              (None, 10)                5130
=================================================================
Total params: 1,676,842
Trainable params: 1,676,842
Non-trainable params: 0
_________________________________________________________________
None
Augmented Data Training.
e:\Master\Semester 2\ML\Homeworks\Pure Code\ML\FinalProject\CNN3.PY:114: UserWarning: The semantics of the Keras 2 argument `steps_per_epoch` is not the 
…
